…
t a function that takes a rectangle and a fill color, and applies this rule. Then I will determine the parameters for each example.\n\nLet's assume the task implies finding the coordinates of the source structured region, its fill color, and then determining the target coordinates based on a simple linear shift for *each example independently*.\n\nGiven the constraints of ARC, the solution should often be simple detection and modification.\nThe largest existing pattern is a rectangular frame of one color, with 0s in the center.\n\nLet's analyze the shapes:\n*   **Ex1 Ref (2-frame):** (2,6) to (6,9) -> h=5, w=4, color=2.\n*   **Ex2 Ref (8-frame):** (10,3) to (13,7) -> h=4, w=5, color=8.\n*   **Ex3 Ref (4-frame):** (3,4) to (7,9) -> h=5, w=6, color=4.\n\nThe corresponding output shapes:\n*   **Ex1 Out (2-frame):** (13,9) to (16,12) -> h=4, w=4, color=2. (height changed)\n*   **Ex2 Out (8-frame):** (7,11) to (10,15) -> h=4, w=5, color=8. (same dimensions)\n*   **Ex3 Out (4-frame):** (14,10) to (18,15) -> h=5, w=6, color=4. (same dimensions)\n\nSince Example 1 changes height, a generic \"shift existing pattern\" is not enough.\nThe simplest rule becomes: find the largest such frame in the input that has a certain color `C`. Let its top-left be `(r1, c1)` and bottom-right `(r2, c2)`. Then apply this \"frame fill\" operation at a *predetermined* location, using `C` as the fill color.\nThe coordinat
…
